docker/models/2tips_sentence_BERTopic/topic_embeddings.safetensors (safetensors, 64600 bytes, 1 tensors)

topic_embeddings f4 [42, 384]
00000000: fefd 25ba 38e7 843d 1099 103d c98b 0d3b
00000010: 3d40 7fbb 00a6 acbd 9835 ba3d 1efd 353d
00000020: 2e0b cebb 14d4 90bd 959a a83d e64d 8a3d
00000030: 448d 92b9 d75e 353d dddf 29bd f624 f9bb
00000040: c639 c33d 2c49 cdbc 279e a0bd 8e4a e33c
00000050: ea68 a6bd b9b7 b7bd 2226 233c 9410 0d3d
00000060: de37 213c f333 6b3d 9262 8dbd 29ad 823c
00000070: 42ba 8dbd 05bc f3bd c194 d3bc aa40 183b
00000080: 11fa d63c 7f0d d5bb b533 e33c 5abf 94bc
00000090: a1a6 30bd 2eb0 133c 2a2d b5bc 8a56 00bd
000000a0: 2b4f 41bc de29 aebc b7cf 09bc 6e78 da3d
000000b0: cacf 943d 7691 3b3d 5b35 9f3d 5e2f b2bc
000000c0: 23f5 053d 52d4 f7bc 80a1 2a3d cc3f 77bc
000000d0: 6606 0bbe e20e 8bbd 5682 463d c966 f23c
000000e0: dbdf 423d c0c6 4cbc b931 88bd 1eba b73d
000000f0: 0e0b 4c3d f7cc 8dbc 6173 07be 2daf c33d
00000100: beae 1abc 0e5d b8bd bf0b 01bd 55ad f1bd
00000110: f0b7 89bd a355 483e c79a fd3c 57bf 5bbb
00000120: 248d b83c ffeb b43c 1d43 963d ec06 263c
00000130: a4f8 7f3d 9022 bebd e72a acbc 689f eb3c
00000140: f026 4abd 58c2 e4bc e926 36bd cdd9 963b
00000150: 8387 c1bd 08fd 263d 3768 18bd 4618 583d
00000160: a59e 7ebd 81b3 c1bd de57 4a3d 33c0 d9bc
00000170: 2101 8c3d b9a8 7e3d eec3 753d 78c2 393d
00000180: 726b 0f3c badb eebb 32b7 6cbd fbd6 473e
00000190: ac39 e1bc 66c6 cfbc 5b78 92bb f6fc 09be
000001a0: e61f 893d b2e9 44bd 73a7 52bc 222c 9a3c
000001b0: 4baa 53bc 9301 9cbd 57e7 f7bc 5836 103c
000001c0: a739 69bb 8c56 e83c 8845 dcbd e097 8bbb
000001d0: c789 01be 54f8 ed3c 758d 1a3d f36e 6b3d
000001e0: eaad 82bc a872 a3bd d041 6b3d 4f86 9dbd
000001f0: 1e38 253b 397e 7fbe a849 db3d a074 af3d
00000200: 5623 5abd 34c7 3d3d 2bdc 253d ac75 0cbd
00000210: d7df 353d 889b 383d 2023 8bbb 06a0 1c3d
00000220: a669 4f3c 171a 0c3e d7cf 8e3d 046f b2bc
00000230: 55e3 3bbe 93e6 463e 2408 cc3b 96bd cd3d
00000240: a961 05bc eb1f cbbc 6e82 87bd 0057 e0bc
00000250: d555 2f3d 9cab b63a fde2 cf3b 5496 0bba
00000260: f7e5 d83d 6a8f 1d3d 6f2e 35bd 6b5e e5bb
00000270: 0b52 393c 890f 813d 3b60 d43c a8ce 48bb
00000280: 0d29 39bd 82f3 f2bb 9896 16bd 13d6 d3bc
00000290: 76e3 41bd 255e 52bc 08d5 8a3c b644 69bd
000002a0: 205a f73c 4a46 893d 248e c33d facf 8fbd
000002b0: a23d f43b d038 88bb 7fa1 3dbd 0012 a33b
000002c0: 1238 febd 51aa 743d 90f4 113c 663f d83c
000002d0: 567b ab3d fa17 d13d 4b86 b6bd 8d8e 2a3c
000002e0: 9b12 3e3b 834b 433d 304a 7e3d 79f5 803d
000002f0: 6acc 833d 83dd 50bb 5df3 87bd 3000 06be
00000300: aab8 b93d 1f32 093e bd6f 20bd c09f 0cbd
00000310: f9b9 963c 9143 853d 29f7 f83c 1653 873b
00000320: 54b0 40be c38f 7fbd e855 fc3c 9d31 bbbd
00000330: 2ac8 ba3d c071 b9bd 8339 ca3c bc1d f7bd
00000340: 7025 3cbd d56e b53d 3d12 ad3c 60ab 9bbd
00000350: 4499 11bd 3263 763d c679 503d 0e68 a43d
00000360: e337 e4bc 066a 3b3d 2786 7abd 5b18 4c3d
00000370: fa59 853c b4aa afbd 895e 0f3b e3e5 95be
00000380: 33bb d7bc c409 eabd e2d5 d23c 66c6 2a3e
00000390: dad1 a8bc 27f8 d5bc c723 a9bc cc09 c43d
000003a0: 9d06 27bd 09db 893d 913f 6cbd 5fc3 a4bd
000003b0: f1f7 6cbd a4ec 97bc 9502 cbbc 68ce 743d
000003c0: 5b5b 67bd ce4a 95bd d605 f53c b28d 223c
000003d0: 8325 e53d 8c55 e83d e44d 14bd f047 993d
000003e0: 5aad febc 56ce 4e3e 0dc3 b5bd 8afc 9fbc
000003f0: fe78 dfbd d800 823d 4d0e 113b 4e1d fa3b
-0.0006332098 0.06489414 0.03530222 0.002159821 -0.00389482 -0.084300995 0.090922534 0.044430844
-0.006287954 -0.07071701 0.08232609 0.06753139 -0.0002795254 0.0442799 -0.04147326 -0.007603283
0.09532504 -0.025059305 -0.07842665 0.027745511 -0.081254795 -0.08970589 0.009957822 0.03443964
0.00983998 0.05742259 -0.069035664 0.01595171 -0.069202915 -0.11901096 -0.025827767 0.0023231902
0.026242288 -0.006501853 0.027734617 -0.01815765 -0.04312766 0.0090141725 -0.022116262 -0.03133253
-0.01179866 -0.021260198 -0.0084113395 0.106675014 0.07266195 0.04579302 0.077738486 -0.021751102
0.032704484 -0.03025261 0.041657925 -0.015090894 -0.1357666 -0.06789948 0.04846414 0.029590027
0.047576766 -0.012498558 -0.06650109 0.08971046 0.04981523 -0.017309649 -0.13227607 0.095548965
-0.009441076 -0.09002124 -0.031505343 -0.118006386 -0.067245364 0.19563918 0.030957593 -0.0033530795
0.022528239 0.022085188 0.073370196 0.010133486 0.06249298 -0.09283936 -0.021016551 0.028762534
-0.04935354 -0.027924702 -0.0444707 0.0046036006 -0.09449675 0.040768653 -0.037208762 0.052757524
-0.062163014 -0.09458066 0.049400203 -0.026580906 0.06836153 0.062172625 0.060001306 0.045351475
0.008753644 -0.007289377 -0.057791896 0.19515602 -0.02749332 -0.025363158 -0.004469914 -0.13475403
0.06695537 -0.04807443 -0.012857306 0.018819872 -0.012919019 -0.07617488 -0.030261679 0.008802019
-0.0035587342 0.028361581 -0.107554495 -0.0042600483 -0.12650214 0.029049076 0.03773256 0.057478856
-0.01595207 -0.07980853 0.05743581 -0.07691633 0.002521045 -0.24950494 0.10707408 0.08567166
-0.053256355 0.046332553 0.04049317 -0.03429191 0.044402923 0.0450702 -0.0042461306 0.038238548
0.012659466 0.13681827 0.06973236 -0.021781452 -0.18348439 0.19423895 0.0062265564 0.10045926
-0.00814096 -0.024795493 -0.06616674 -0.027385235 0.042806465 0.0013936642 0.006344198 -0.000532483
0.10590737 0.03846685 -0.044233736 -0.006999781 0.0113110645 0.06301791 0.025924793 -0.0030640755
-0.045205165 -0.0074142823 -0.03676471 -0.025858914 -0.047336064 -0.012839829 0.016947284 -0.056950293
0.030194342 0.0670286 0.095485955 -0.0702209 0.0074536363 -0.004157163 -0.046296593 0.004976511
-0.12413038 0.05973274 0.008908406 0.026397418 0.08373134 0.10209651 -0.08912333 0.010409963
0.002900279 0.047679435 0.06208247 0.0629682 0.06435473 -0.0031870313 -0.06638215 -0.13086009
0.09068425 0.13398026 -0.039169062 -0.034332037 0.018399226 0.06507028 0.030391293 0.0041297777
-0.18817264 -0.06239296 0.030802682 -0.09140322 0.091202095 -0.09054899 0.024685627 -0.12066218
-0.04593414 0.0885903 0.02112686 -0.076010466 -0.035546556 0.060153194 0.050897382 0.08027659
-0.02785868 0.04575541 -0.061163094 0.049827915 0.016278256 -0.08577481 0.0021876416 -0.29276952
-0.02633438 -0.11427644 0.025736753 0.16677245 -0.020607878 -0.026119305 -0.020646943 0.09572181
-0.04077779 0.06731231 -0.05767781 -0.080450766 -0.057853643 -0.018545456 -0.024781505 0.059767157
-0.056483608 -0.072896585 0.02991001 0.009921478 0.111887954 0.11344442 -0.036207095 0.07484424
-0.03108852 0.20195898 -0.088750936 -0.0195296 -0.10911749 0.06347817 0.0022133768 0.007632888
